…
=========== drop path rates:  [0.0, 0.0, 0.0, 0.0, 0.0, 0.0, 0.0, 0.0, 0.0, 0.0, 0.0, 0.0]
=========== use default kernel size 
((3, 3), (13, 13), (13, 13, 13, 13, 13, 13), (13, 13))
=========== drop path rates:  [0.0, 0.0, 0.0, 0.0, 0.0, 0.0, 0.0, 0.0, 0.0, 0.0, 0.0, 0.0]
Train dataset size: 4961
Train loader size: 51
Train dataset size: 4961
Train loader size: 51
2026-04-24 10:50:15,461 - multimodal - INFO - 模型结构:
MultimodalClassifier(
  (backbones): ModuleDict(
    (image): UniRepLKNetImage(
      (dropout): Dropout(p=0.1, inplace=False)
      (backbone): UniRepLKNet(
        (downsample_layers): ModuleList(
          (0): Sequential(
            (0): Conv2d(3, 32, kernel_size=(3, 3), stride=(2, 2), padding=(1, 1))
            (1): LayerNorm()
            (2): GELU(approximate='none')
            (3): Conv2d(32, 64, kernel_size=(3, 3), stride=(2, 2), padding=(1, 1))
            (4): LayerNorm()
          )
          (1): Sequential(
            (0): Conv2d(64, 128, kernel_size=(3, 3), stride=(2, 2), padding=(1, 1))
            (1): LayerNorm()
          )
          (2): Sequential(
            (0): Conv2d(128, 256, kernel_size=(3, 3), stride=(2, 2), padding=(1, 1))
            (1): LayerNorm()
          )
          (3): Sequential(
            (0): Conv2d(256, 512, kernel_size=(3, 3), stride=(2, 2), padding=(1, 1))
            (1): LayerNorm()
          )
        )
        (stages): ModuleList(
          (0): Sequential(
            (0): UniRepLKNetBlock(
              (dwconv): Conv2d(64, 64, kernel_size=(3, 3), stride=(1, 1), padding=(1, 1), groups=64, bias=False)
              (norm): BatchNorm2d(64, eps=1e-05, momentum=0.1, affine=True, track_running_stats=True)
              (se): SEBlock(
                (down): Conv2d(64, 16, kernel_size=(1, 1), stride=(1, 1))
                (up): Conv2d(16, 64, kernel_size=(1, 1), stride=(1, 1))
                (nonlinear): ReLU(inplace=True)
              )
              (pwconv1): Sequential(
                (0): NCHWtoNHWC()
                (1): Linear(in_features=64, out_features=256, bias=True)
              )
              (act): Sequential(
                (0): GELU(approximate='none')
                (1): GRNwithNHWC()
              )
              (pwconv2): Sequential(
                (0): Linear(in_features=256, out_features=64, bias=False)
                (1): NHWCtoNCHW()
                (2): BatchNorm2d(64, eps=1e-05, momentum=0.1, affine=True, track_running_stats=True)
              )
              (drop_path): Identity()
            )
            (1): UniRepLKNetBlock(
              (dwconv): Conv2d(64, 64, kernel_size=(3, 3), stride=(1, 1), padding=(1, 1), groups=64, bias=False)
              (norm): BatchNorm2d(64, eps=1e-05, momentum=0.1, affine=True, track_running_stats=True)
              (se): SEBlock(
                (down): Conv2d(64, 16, kernel_size=(1, 1), stride=(1, 1))
                (up): Conv2d(16, 64, kernel_size=(1, 1), stride=(1, 1))
                (nonlinear): ReLU(inplace=True)
              )
              (pwconv1): Sequential(
                (0): NCHWtoNHWC()
                (1): Linear(in_features=64, out_features=256, bias=True)
              )
              (act): Sequential(
                (0): GELU(approximate='none')
                (1): GRNwithNHWC()
              )
              (pwconv2): Sequential(
                (0): Linear(in_features=256, out_features=64, bias=False)
                (1): NHWCtoNCHW()
                (2): BatchNorm2d(64, eps=1e-05, momentum=0.1, affine=True, track_running_stats=True)
              )
              (drop_path): Identity()
            )
          )
          (1): Sequential(
            (0): UniRepLKNetBlock(
              (dwconv): DilatedReparamBlock(
                (lk_origin): Conv2d(128, 128, kernel_size=(13, 13), stride=(1, 1), padding=(6, 6), groups=128, bias=False)
                (origin_bn): BatchNorm2d(128, eps=1e-05, momentum=0.1, affine=True, track_running_stats=True)
                (dil_conv_k5_1): Conv2d(128, 128, kernel_size=(5, 5), stride=(1, 1), padding=(2, 2), groups=128, bias=False)
                (dil_bn_k5_1): BatchNorm2d(128, eps=1e-05, momentum=0.1, affine=True, track_running_stats=True)
                (dil_conv_k7_2): Conv2d(128, 128, kernel_size=(7, 7), stride=(1, 1), padding=(6, 6), dilation=(2, 2), groups=128, bias=False)
                (dil_bn_k7_2): BatchNorm2d(128, eps=1e-05, momentum=0.1, affine=True, track_running_stats=True)
                (dil_conv_k3_3): Conv2d(128, 128, kernel_size=(3, 3), stride=(1, 1), padding=(3, 3), dilation=(3, 3), groups=128, bias=False)
                (dil_bn_k3_3): BatchNorm2d(128, eps=1e-05, momentum=0.1, affine=True, track_running_stats=True)
                (dil_conv_k3_4): Conv2d(128, 128, kernel_size=(3, 3), stride=(1, 1), padding=(4, 4), dilation=(4, 4), groups=128, bias=False)
                (dil_bn_k3_4): BatchNorm2d(128, eps=1e-05, momentum=0.1, affine=True, track_running_stats=True)
                (dil_conv_k3_5): Conv2d(128, 128, kernel_size=(3, 3), stride=(1, 1), padding=(5, 5), dilation=(5, 5), groups=128, bias=False)
                (dil_bn_k3_5): BatchNorm2d(128, eps=1e-05, momentum=0.1, affine=True, track_running_stats=True)
              )
              (norm): BatchNorm2d(128, eps=1e-05, momentum=0.1, affine=True, track_running_stats=True)
              (se): SEBlock(
                (down): Conv2d(128, 32, kernel_size=(1, 1), stride=(1, 1))
                (up): Conv2d(32, 128, kernel_size=(1, 1), stride=(1, 1))
                (nonlinear): ReLU(inplace=True)
              )
              (pwconv1): Sequential(
                (0): NCHWtoNHWC()
                (1): Linear(in_features=128, out_features=512, bias=True)
              )
              (act): Sequential(
                (0): GELU(approximate='none')
                (1): GRNwithNHWC()
              )
              (pwconv2): Sequential(
                (0): Linear(in_features=512, out_features=128, bias=False)
                (1): NHWCtoNCHW()
                (2): BatchNorm2d(128, eps=1e-05, momentum=0.1, affine=True, track_running_stats=True)
              )
              (drop_path): Identity()
            )
            (1): UniRepLKNetBlock(
              (dwconv): DilatedReparamBlock(
                (lk_origin): Conv2d(128, 128, kernel_size=(13, 13), stride=(1, 1), padding=(6, 6), groups=128, bias=False)
                (origin_bn): BatchNorm2d(128, eps=1e-05, momentum=0.1, affine=True, track_running_stats=True)
                (dil_conv_k5_1): Conv2d(128, 128, kernel_size=(5, 5), stride=(1, 1), padding=(2, 2), groups=128, bias=False)
                (dil_bn_k5_1): BatchNorm2d(128, eps=1e-05, momentum=0.1, affine=True, track_running_stats=True)
                (dil_conv_k7_2): Conv2d(128, 128, kernel_size=(7, 7), stride=(1, 1), padding=(6, 6), dilation=(2, 2), groups=128, bias=False)
                (dil_bn_k7_2): BatchNorm2d(128, eps=1e-05, momentum=0.1, affine=True, track_running_stats=True)
                (dil_conv_k3_3): Conv2d(128, 128, kernel_size=(3, 3), stride=(1, 1), padding=(3, 3), dilation=(3, 3), groups=128, bias=False)
                (dil_bn_k3_3): BatchNorm2d(128, eps=1e-05, momentum=0.1, affine=True, track_running_stats=True)
                (dil_conv_k3_4): Conv2d(128, 128, kernel_size=(3, 3), stride=(1, 1), padding=(4, 4), dilation=(4, 4), groups=128, bias=False)
                (dil_bn_k3_4): BatchNorm2d(128, eps=1e-05, momentum=0.1, affine=True, track_running_stats=True)
                (dil_conv_k3_5): Conv2d(128, 128, kernel_size=(3, 3), stride=(1, 1), padding=(5, 5), dilation=(5, 5), groups=128, bias=False)
                (dil_bn_k3_5): BatchNorm2d(128, eps=1e-05, momentum=0.1, affine=True, track_running_stats=True)
              )
              (norm): BatchNorm2d(128, eps=1e-05, momentum=0.1, affine=True, track_running_stats=True)
              (se): SEBlock(
                (down): Conv2d(128, 32, kernel_size=(1, 1), stride=(1, 1))
                (up): Conv2d(32, 128, kernel_size=(1, 1), stride=(1, 1))
                (nonlinear): ReLU(inplace=True)
              )
              (pwconv1): Sequential(
                (0): NCHWtoNHWC()
                (1): Linear(in_features=128, out_features=512, bias=True)
              )
              (act): Sequential(
                (0): GELU(approximate='none')
                (1): GRNwithNHWC()
              )
              (pwconv2): Sequential(
                (0): Linear(in_features=512, out_features=128, bias=False)
                (1): NHWCtoNCHW()
                (2): BatchNorm2d(128, eps=1e-05, momentum=0.1, affine=True, track_running_stats=True)
              )
              (drop_path): Identity()
            )
          )
          (2): Sequential(
            (0): UniRepLKNetBlock(
              (dwconv): DilatedReparamBlock(
                (lk_origin): Conv2d(256, 256, kernel_size=(13, 13), stride=(1, 1), padding=(6, 6), groups=256, bias=False)
                (origin_bn): BatchNorm2d(256, eps=1e-05, momentum=0.1, affine=True, track_running_stats=True)
                (dil_conv_k5_1): Conv2d(256, 256, kernel_size=(5, 5), stride=(1, 1), padding=(2, 2), groups=256, bias=False)
                (dil_bn_k5_1): BatchNorm2d(256, eps=1e-05, momentum=0.1, affine=True, track_running_stats=True)
                (dil_conv_k7_2): Conv2d(256, 256, kernel_size=(7, 7), stride=(1, 1), padding=(6, 6), dilation=(2, 2), groups=256, bias=False)
                (dil_bn_k7_2): BatchNorm2d(256, eps=1e-05, momentum=0.1, affine=True, track_running_stats=True)
                (dil_conv_k3_3): Conv2d(256, 256, kernel_size=(3, 3), stride=(1, 1), padding=(3, 3), dilation=(3, 3), groups=256, bias=False)
                (dil_bn_k3_3): BatchNorm2d(256, eps=1e-05, momentum=0.1, affine=True, track_running_stats=True)
                (dil_conv_k3_4): Conv2d(256, 256, kernel_size=(3, 3), stride=(1, 1), padding=(4, 4), dilation=(4, 4), groups=256, bias=False)
                (dil_bn_k3_4): BatchNorm2d(256, eps=1e-05, momentum=0.1, affine=True, track_running_stats=True)
                (dil_conv_k3_5): Conv2d(256, 256, kernel_size=(3, 3), stride=(1, 1), padding=(5, 5), dilation=(5, 5), groups=256, bias=False)
                (dil_bn_k3_5): BatchNorm2d(256, eps=1e-05, momentum=0.1, affine=True, track_running_stats=True)
              )
              (norm): BatchNorm2d(256, eps=1e-05, momentum=0.1, affine=True, track_running_stats=True)
              (se): SEBlock(
                (down): Conv2d(256, 64, kernel_size=(1, 1), stride=(1, 1))
                (up): Conv2d(64, 256, kernel_size=(1, 1), stride=(1, 1))
                (nonlinear): ReLU(inplace=True)
              )
              (pwconv1): Sequential(
                (0): NCHWtoNHWC()
                (1): Linear(in_features=256, out_features=1024, bias=True)
              )
              (act): Sequential(
                (0): GELU(approximate='none')
                (1): GRNwithNHWC()
              )
              (pwconv2): Sequential(
                (0): Linear(in_features=1024, out_features=256, bias=False)
                (1): NHWCtoNCHW()
                (2): BatchNorm2d(256, eps=1e-05, momentum=0.1, affine=True, track_running_stats=True)
              )
              (drop_path): Identity()
            )
            (1): UniRepLKNetBlock(
              (dwconv): DilatedReparamBlock(
                (lk_origin): Conv2d(256, 256, kernel_size=(13, 13), stride=(1, 1), padding=(6, 6), groups=256, bias=False)
                (origin_bn): BatchNorm2d(256, eps=1e-05, momentum=0.1, affine=True, track_running_stats=True)
                (dil_conv_k5_1): Conv2d(256, 256, kernel_size=(5, 5), stride=(1, 1), padding=(2, 2), groups=256, bias=False)
                (dil_bn_k5_1): BatchNorm2d(256, eps=1e-05, momentum=0.1, affine=True, track_running_stats=True)
                (dil_conv_k7_2): Conv2d(256, 256, kernel_size=(7, 7), stride=(1, 1), padding=(6, 6), dilation=(2, 2), groups=256, bias=False)
                (dil_bn_k7_2): BatchNorm2d(256, eps=1e-05, momentum=0.1, affine=True, track_running_stats=True)
                (dil_conv_k3_3): Conv2d(256, 256, kernel_size=(3, 3), stride=(1, 1), padding=(3, 3), dilation=(3, 3), groups=256, bias=False)
                (dil_bn_k3_3): BatchNorm2d(256, eps=1e-05, momentum=0.1, affine=True, track_running_stats=True)
                (dil_conv_k3_4): Conv2d(256, 256, kernel_size=(3, 3), stride=(1, 1), padding=(4, 4), dilation=(4, 4), groups=256, bias=False)
                (dil_bn_k3_4): BatchNorm2d(256, eps=1e-05, momentum=0.1, affine=True, track_running_stats=True)
                (dil_conv_k3_5): Conv2d(256, 256, kernel_size=(3, 3), stride=(1, 1), padding=(5, 5), dilation=(5, 5), groups=256, bias=False)
                (dil_bn_k3_5): BatchNorm2d(256, eps=1e-05, momentum=0.1, affine=True, track_running_stats=True)
              )
              (norm): BatchNorm2d(256, eps=1e-05, momentum=0.1, affine=True, track_running_stats=True)
              (se): SEBlock(
                (down): Conv2d(256, 64, kernel_size=(1, 1), stride=(1, 1))
                (up): Conv2d(64, 256, kernel_size=(1, 1), stride=(1, 1))
                (nonlinear): ReLU(inplace=True)
              )
              (pwconv1): Sequential(
                (0): NCHWtoNHWC()
                (1): Linear(in_features=256, out_features=1024, bias=True)
              )
              (act): Sequential(
                (0): GELU(approximate='none')
                (1): GRNwithNHWC()
              )
              (pwconv2): Sequential(
                (0): Linear(in_features=1024, out_features=256, bias=False)
                (1): NHWCtoNCHW()
                (2): BatchNorm2d(256, eps=1e-05, momentum=0.1, affine=True, track_running_stats=True)
              )
              (drop_path): Identity()
            )
            (2): UniRepLKNetBlock(
              (dwconv): DilatedReparamBlock(
                (lk_origin): Conv2d(256, 256, kernel_size=(13, 13), stride=(1, 1), padding=(6, 6), groups=256, bias=False)
                (origin_bn): BatchNorm2d(256, eps=1e-05, momentum=0.1, affine=True, track_running_stats=True)
                (dil_conv_k5_1): Conv2d(256, 256, kernel_size=(5, 5), stride=(1, 1), padding=(2, 2), groups=256, bias=False)
                (dil_bn_k5_1): BatchNorm2d(256, eps=1e-05, momentum=0.1, affine=True, track_running_stats=True)
                (dil_conv_k7_2): Conv2d(256, 256, kernel_size=(7, 7), stride=(1, 1), padding=(6, 6), dilation=(2, 2), groups=256, bias=False)
                (dil_bn_k7_2): BatchNorm2d(256, eps=1e-05, momentum=0.1, affine=True, track_running_stats=True)
                (dil_conv_k3_3): Conv2d(256, 256, kernel_size=(3, 3), stride=(1, 1), padding=(3, 3), dilation=(3, 3), groups=256, bias=False)
                (dil_bn_k3_3): BatchNorm2d(256, eps=1e-05, momentum=0.1, affine=True, track_running_stats=True)
                (dil_conv_k3_4): Conv2d(256, 256, kernel_size=(3, 3), stride=(1, 1), padding=(4, 4), dilation=(4, 4), groups=256, bias=False)
                (dil_bn_k3_4): BatchNorm2d(256, eps=1e-05, momentum=0.1, affine=True, track_running_stats=True)
                (dil_conv_k3_5): Conv2d(256, 256, kernel_size=(3, 3), stride=(1, 1), padding=(5, 5), dilation=(5, 5), groups=256, bias=False)
                (dil_bn_k3_5): BatchNorm2d(256, eps=1e-05, momentum=0.1, affine=True, track_running_stats=True)
              )
              (norm): BatchNorm2d(256, eps=1e-05, momentum=0.1, affine=True, track_running_stats=True)
              (se): SEBlock(
                (down): Conv2d(256, 64, kernel_size=(1, 1), stride=(1, 1))
                (up): Conv2d(64, 256, kernel_size=(1, 1), stride=(1, 1))
                (nonlinear): ReLU(inplace=True)
              )
              (pwconv1): Sequential(
                (0): NCHWtoNHWC()
                (1): Linear(in_features=256, out_features=1024, bias=True)
              )
              (act): Sequential(
                (0): GELU(approximate='none')
                (1): GRNwithNHWC()
              )
              (pwconv2): Sequential(
                (0): Linear(in_features=1024, out_features=256, bias=False)
                (1): NHWCtoNCHW()
                (2): BatchNorm2d(256, eps=1e-05, momentum=0.1, affine=True, track_running_stats=True)
              )
              (drop_path): Identity()
            )
            (3): UniRepLKNetBlock(
              (dwconv): DilatedReparamBlock(
                (lk_origin): Conv2d(256, 256, kernel_size=(13, 13), stride=(1, 1), padding=(6, 6), groups=256, bias=False)
                (origin_bn): BatchNorm2d(256, eps=1e-05, momentum=0.1, affine=True, track_running_stats=True)
                (dil_conv_k5_1): Conv2d(256, 256, kernel_size=(5, 5), stride=(1, 1), padding=(2, 2), groups=256, bias=False)
                (dil_bn_k5_1): BatchNorm2d(256, eps=1e-05, momentum=0.1, affine=True, track_running_stats=True)
                (dil_conv_k7_2): Conv2d(256, 256, kernel_size=(7, 7), stride=(1, 1), padding=(6, 6), dilation=(2, 2), groups=256, bias=False)
                (dil_bn_k7_2): BatchNorm2d(256, eps=1e-05, momentum=0.1, affine=True, track_running_stats=True)
                (dil_conv_k3_3): Conv2d(256, 256, kernel_size=(3, 3), stride=(1, 1), padding=(3, 3), dilation=(3, 3), groups=256, bias=False)
                (dil_bn_k3_3): BatchNorm2d(256, eps=1e-05, momentum=0.1, affine=True, track_running_stats=True)
                (dil_conv_k3_4): Conv2d(256, 256, kernel_size=(3, 3), stride=(1, 1), padding=(4, 4), dilation=(4, 4), groups=256, bias=False)
                (dil_bn_k3_4): BatchNorm2d(256, eps=1e-05, momentum=0.1, affine=True, track_running_stats=True)
                (dil_conv_k3_5): Conv2d(256, 256, kernel_size=(3, 3), stride=(1, 1), padding=(5, 5), dilation=(5, 5), groups=256, bias=False)
                (dil_bn_k3_5): BatchNorm2d(256, eps=1e-05, momentum=0.1, affine=True, track_running_stats=True)
              )
              (norm): BatchNorm2d(256, eps=1e-05, momentum=0.1, affine=True, track_running_stats=True)
              (se): SEBlock(
                (down): Conv2d(256, 64, kernel_size=(1, 1), stride=(1, 1))
                (up): Conv2d(64, 256, kernel_size=(1, 1), stride=(1, 1))
                (nonlinear): ReLU(inplace=True)
              )
              (pwconv1): Sequential(
                (0): NCHWtoNHWC()
                (1): Linear(in_features=256, out_features=1024, bias=True)
              )
              (act): Sequential(
                (0): GELU(approximate='none')
                (1): GRNwithNHWC()
              )
              (pwconv2): Sequential(
                (0): Linear(in_features=1024, out_features=256, bias=False)
                (1): NHWCtoNCHW()
                (2): BatchNorm2d(256, eps=1e-05, momentum=0.1, affine=True, track_running_stats=True)
              )
              (drop_path): Identity()
            )
            (4): UniRepLKNetBlock(
              (dwconv): DilatedReparamBlock(
                (lk_origin): Conv2d(256, 256, kernel_size=(13, 13), stride=(1, 1), padding=(6, 6), groups=256, bias=False)
                (origin_bn): BatchNorm2d(256, eps=1e-05, momentum=0.1, affine=True, track_running_stats=True)
                (dil_conv_k5_1): Conv2d(256, 256, kernel_size=(5, 5), stride=(1, 1), padding=(2, 2), groups=256, bias=False)
                (dil_bn_k5_1): BatchNorm2d(256, eps=1e-05, momentum=0.1, affine=True, track_running_stats=True)
                (dil_conv_k7_2): Conv2d(256, 256, kernel_size=(7, 7), stride=(1, 1), padding=(6, 6), dilation=(2, 2), groups=256, bias=False)
                (dil_bn_k7_2): BatchNorm2d(256, eps=1e-05, momentum=0.1, affine=True, track_running_stats=True)
                (dil_conv_k3_3): Conv2d(256, 256, kernel_size=(3, 3), stride=(1, 1), padding=(3, 3), dilation=(3, 3), groups=256, bias=False)
                (dil_bn_k3_3): BatchNorm2d(256, eps=1e-05, momentum=0.1, affine=True, track_running_stats=True)
                (dil_conv_k3_4): Conv2d(256, 256, kernel_size=(3, 3), stride=(1, 1), padding=(4, 4), dilation=(4, 4), groups=256, bias=False)
                (dil_bn_k3_4): BatchNorm2d(256, eps=1e-05, momentum=0.1, affine=True, track_running_stats=True)
                (dil_conv_k3_5): Conv2d(256, 256, kernel_size=(3, 3), stride=(1, 1), padding=(5, 5), dilation=(5, 5), groups=256, bias=False)
                (dil_bn_k3_5): BatchNorm2d(256, eps=1e-05, momentum=0.1, affine=True, track_running_stats=True)
              )
              (norm): BatchNorm2d(256, eps=1e-05, momentum=0.1, affine=True, track_running_stats=True)
              (se): SEBlock(
                (down): Conv2d(256, 64, kernel_size=(1, 1), stride=(1, 1))
                (up): Conv2d(64, 256, kernel_size=(1, 1), stride=(1, 1))
                (nonlinear): ReLU(inplace=True)
              )
              (pwconv1): Sequential(
                (0): NCHWtoNHWC()
                (1): Linear(in_features=256, out_features=1024, bias=True)
              )
              (act): Sequential(
                (0): GELU(approximate='none')
                (1): GRNwithNHWC()
              )
              (pwconv2): Sequential(
                (0): Linear(in_features=1024, out_features=256, bias=False)
                (1): NHWCtoNCHW()
                (2): BatchNorm2d(256, eps=1e-05, momentum=0.1, affine=True, track_running_stats=True)
              )
              (drop_path): Identity()
            )
            (5): UniRepLKNetBlock(
              (dwconv): DilatedReparamBlock(
                (lk_origin): Conv2d(256, 256, kernel_size=(13, 13), stride=(1, 1), padding=(6, 6), groups=256, bias=False)
                (origin_bn): BatchNorm2d(256, eps=1e-05, momentum=0.1, affine=True, track_running_stats=True)
                (dil_conv_k5_1): Conv2d(256, 256, kernel_size=(5, 5), stride=(1, 1), padding=(2, 2), groups=256, bias=False)
                (dil_bn_k5_1): BatchNorm2d(256, eps=1e-05, momentum=0.1, affine=True, track_running_stats=True)
                (dil_conv_k7_2): Conv2d(256, 256, kernel_size=(7, 7), stride=(1, 1), padding=(6, 6), dilation=(2, 2), groups=256, bias=False)
                (dil_bn_k7_2): BatchNorm2d(256, eps=1e-05, momentum=0.1, affine=True, track_running_stats=True)
                (dil_conv_k3_3): Conv2d(256, 256, kernel_size=(3, 3), stride=(1, 1), padding=(3, 3), dilation=(3, 3), groups=256, bias=False)
                (dil_bn_k3_3): BatchNorm2d(256, eps=1e-05, momentum=0.1, affine=True, track_running_stats=True)
                (dil_conv_k3_4): Conv2d(256, 256, kernel_size=(3, 3), stride=(1, 1), padding=(4, 4), dilation=(4, 4), groups=256, bias=False)
                (dil_bn_k3_4): BatchNorm2d(256, eps=1e-05, momentum=0.1, affine=True, track_running_stats=True)
                (dil_conv_k3_5): Conv2d(256, 256, kernel_size=(3, 3), stride=(1, 1), padding=(5, 5), dilation=(5, 5), groups=256, bias=False)
                (dil_bn_k3_5): BatchNorm2d(256, eps=1e-05, momentum=0.1, affine=True, track_running_stats=True)
              )
              (norm): BatchNorm2d(256, eps=1e-05, momentum=0.1, affine=True, track_running_stats=True)
              (se): SEBlock(
                (down): Conv2d(256, 64, kernel_size=(1, 1), stride=(1, 1))
                (up): Conv2d(64, 256, kernel_size=(1, 1), stride=(1, 1))
                (nonlinear): ReLU(inplace=True)
              )
              (pwconv1): Sequential(
                (0): NCHWtoNHWC()
                (1): Linear(in_features=256, out_features=1024, bias=True)
              )
              (act): Sequential(
                (0): GELU(approximate='none')
                (1): GRNwithNHWC()
              )
              (pwconv2): Sequential(
                (0): Linear(in_features=1024, out_features=256, bias=False)
                (1): NHWCtoNCHW()
                (2): BatchNorm2d(256, eps=1e-05, momentum=0.1, affine=True, track_running_stats=True)
              )
              (drop_path): Identity()
            )
          )
          (3): Sequential(
            (0): UniRepLKNetBlock(
              (dwconv): DilatedReparamBlock(
                (lk_origin): Conv2d(512, 512, kernel_size=(13, 13), stride=(1, 1), padding=(6, 6), groups=512, bias=False)
                (origin_bn): BatchNorm2d(512, eps=1e-05, momentum=0.1, affine=True, track_running_stats=True)
                (dil_conv_k5_1): Conv2d(512, 512, kernel_size=(5, 5), stride=(1, 1), padding=(2, 2), groups=512, bias=False)
                (dil_bn_k5_1): BatchNorm2d(512, eps=1e-05, momentum=0.1, affine=True, track_running_stats=True)
                (dil_conv_k7_2): Conv2d(512, 512, kernel_size=(7, 7), stride=(1, 1), padding=(6, 6), dilation=(2, 2), groups=512, bias=False)
                (dil_bn_k7_2): BatchNorm2d(512, eps=1e-05, momentum=0.1, affine=True, track_running_stats=True)
                (dil_conv_k3_3): Conv2d(512, 512, kernel_size=(3, 3), stride=(1, 1), padding=(3, 3), dilation=(3, 3), groups=512, bias=False)
                (dil_bn_k3_3): BatchNorm2d(512, eps=1e-05, momentum=0.1, affine=True, track_running_stats=True)
                (dil_conv_k3_4): Conv2d(512, 512, kernel_size=(3, 3), stride=(1, 1), padding=(4, 4), dilation=(4, 4), groups=512, bias=False)
                (dil_bn_k3_4): BatchNorm2d(512, eps=1e-05, momentum=0.1, affine=True, track_running_stats=True)
                (dil_conv_k3_5): Conv2d(512, 512, kernel_size=(3, 3), stride=(1, 1), padding=(5, 5), dilation=(5, 5), groups=512, bias=False)
                (dil_bn_k3_5): BatchNorm2d(512, eps=1e-05, momentum=0.1, affine=True, track_running_stats=True)
              )
              (norm): BatchNorm2d(512, eps=1e-05, momentum=0.1, affine=True, track_running_stats=True)
              (se): SEBlock(
                (down): Conv2d(512, 128, kernel_size=(1, 1), stride=(1, 1))
                (up): Conv2d(128, 512, kernel_size=(1, 1), stride=(1, 1))
                (nonlinear): ReLU(inplace=True)
              )
              (pwconv1): Sequential(
                (0): NCHWtoNHWC()
                (1): Linear(in_features=512, out_features=2048, bias=True)
              )
              (act): Sequential(
                (0): GELU(approximate='none')
                (1): GRNwithNHWC()
              )
              (pwconv2): Sequential(
                (0): Linear(in_features=2048, out_features=512, bias=False)
                (1): NHWCtoNCHW()
                (2): BatchNorm2d(512, eps=1e-05, momentum=0.1, affine=True, track_running_stats=True)
              )
              (drop_path): Identity()
            )
            (1): UniRepLKNetBlock(
              (dwconv): DilatedReparamBlock(
                (lk_origin): Conv2d(512, 512, kernel_size=(13, 13), stride=(1, 1), padding=(6, 6), groups=512, bias=False)
                (origin_bn): BatchNorm2d(512, eps=1e-05, momentum=0.1, affine=True, track_running_stats=True)
                (dil_conv_k5_1): Conv2d(512, 512, kernel_size=(5, 5), stride=(1, 1), padding=(2, 2), groups=512, bias=False)
                (dil_bn_k5_1): BatchNorm2d(512, eps=1e-05, momentum=0.1, affine=True, track_running_stats=True)
                (dil_conv_k7_2): Conv2d(512, 512, kernel_size=(7, 7), stride=(1, 1), padding=(6, 6), dilation=(2, 2), groups=512, bias=False)
                (dil_bn_k7_2): BatchNorm2d(512, eps=1e-05, momentum=0.1, affine=True, track_running_stats=True)
                (dil_conv_k3_3): Conv2d(512, 512, kernel_size=(3, 3), stride=(1, 1), padding=(3, 3), dilation=(3, 3), groups=512, bias=False)
                (dil_bn_k3_3): BatchNorm2d(512, eps=1e-05, momentum=0.1, affine=True, track_running_stats=True)
                (dil_conv_k3_4): Conv2d(512, 512, kernel_size=(3, 3), stride=(1, 1), padding=(4, 4), dilation=(4, 4), groups=512, bias=False)
                (dil_bn_k3_4): BatchNorm2d(512, eps=1e-05, momentum=0.1, affine=True, track_running_stats=True)
                (dil_conv_k3_5): Conv2d(512, 512, kernel_size=(3, 3), stride=(1, 1), padding=(5, 5), dilation=(5, 5), groups=512, bias=False)
                (dil_bn_k3_5): BatchNorm2d(512, eps=1e-05, momentum=0.1, affine=True, track_running_stats=True)
              )
              (norm): BatchNorm2d(512, eps=1e-05, momentum=0.1, affine=True, track_running_stats=True)
              (se): SEBlock(
                (down): Conv2d(512, 128, kernel_size=(1, 1), stride=(1, 1))
                (up): Conv2d(128, 512, kernel_size=(1, 1), stride=(1, 1))
                (nonlinear): ReLU(inplace=True)
              )
              (pwconv1): Sequential(
                (0): NCHWtoNHWC()
                (1): Linear(in_features=512, out_features=2048, bias=True)
              )
              (act): Sequential(
                (0): GELU(approximate='none')
                (1): GRNwithNHWC()
              )
              (pwconv2): Sequential(
                (0): Linear(in_features=2048, out_features=512, bias=False)
                (1): NHWCtoNCHW()
                (2): BatchNorm2d(512, eps=1e-05, momentum=0.1, affine=True, track_running_stats=True)
              )
              (drop_path): Identity()
            )
          )
        )
        (norm): LayerNorm((512,), eps=1e-06, elementwise_affine=True)
        (head): Linear(in_features=512, out_features=1000, bias=True)
      )
      (proj): Identity()
    )
    (audio): UniRepLKNetAudio(
      (dropout): Dropout(p=0.1, inplace=False)
      (backbone): UniRepLKNet(
        (downsample_layers): ModuleList(
          (0): Sequential(
            (0): Conv2d(2, 32, kernel_size=(3, 3), stride=(2, 2), padding=(1, 1))
            (1): LayerNorm()
            (2): GELU(approximate='none')
            (3): Conv2d(32, 64, kernel_size=(3, 3), stride=(2, 2), padding=(1, 1))
            (4): LayerNorm()
          )
          (1): Sequential(
            (0): Conv2d(64, 128, kernel_size=(3, 3), stride=(2, 2), padding=(1, 1))
            (1): LayerNorm()
          )
          (2): Sequential(
            (0): Conv2d(128, 256, kernel_size=(3, 3), stride=(2, 2), padding=(1, 1))
            (1): LayerNorm()
          )
          (3): Sequential(
            (0): Conv2d(256, 512, kernel_size=(3, 3), stride=(2, 2), padding=(1, 1))
            (1): LayerNorm()
          )
        )
        (stages): ModuleList(
          (0): Sequential(
            (0): UniRepLKNetBlock(
              (dwconv): Conv2d(64, 64, kernel_size=(3, 3), stride=(1, 1), padding=(1, 1), groups=64, bias=False)
              (norm): BatchNorm2d(64, eps=1e-05, momentum=0.1, affine=True, track_running_stats=True)
              (se): SEBlock(
                (down): Conv2d(64, 16, kernel_size=(1, 1), stride=(1, 1))
                (up): Conv2d(16, 64, kernel_size=(1, 1), stride=(1, 1))
                (nonlinear): ReLU(inplace=True)
              )
              (pwconv1): Sequential(
                (0): NCHWtoNHWC()
                (1): Linear(in_features=64, out_features=256, bias=True)
              )
              (act): Sequential(
                (0): GELU(approximate='none')
                (1): GRNwithNHWC()
              )
              (pwconv2): Sequential(
                (0): Linear(in_features=256, out_features=64, bias=False)
                (1): NHWCtoNCHW()
                (2): BatchNorm2d(64, eps=1e-05, momentum=0.1, affine=True, track_running_stats=True)
              )
              (drop_path): Identity()
            )
            (1): UniRepLKNetBlock(
              (dwconv): Conv2d(64, 64, kernel_size=(3, 3), stride=(1, 1), padding=(1, 1), groups=64, bias=False)
              (norm): BatchNorm2d(64, eps=1e-05, momentum=0.1, affine=True, track_running_stats=True)
              (se): SEBlock(
                (down): Conv2d(64, 16, kernel_size=(1, 1), stride=(1, 1))
                (up): Conv2d(16, 64, kernel_size=(1, 1), stride=(1, 1))
                (nonlinear): ReLU(inplace=True)
              )
              (pwconv1): Sequential(
                (0): NCHWtoNHWC()
                (1): Linear(in_features=64, out_features=256, bias=True)
              )
              (act): Sequential(
                (0): GELU(approximate='none')
                (1): GRNwithNHWC()
              )
              (pwconv2): Sequential(
                (0): Linear(in_features=256, out_features=64, bias=False)
                (1): NHWCtoNCHW()
                (2): BatchNorm2d(64, eps=1e-05, momentum=0.1, affine=True, track_running_stats=True)
              )
              (drop_path): Identity()
            )
          )
          (1): Sequential(
            (0): UniRepLKNetBlock(
              (dwconv): DilatedReparamBlock(
                (lk_origin): Conv2d(128, 128, kernel_size=(13, 13), stride=(1, 1), padding=(6, 6), groups=128, bias=False)
                (origin_bn): BatchNorm2d(128, eps=1e-05, momentum=0.1, affine=True, track_running_stats=True)
                (dil_conv_k5_1): Conv2d(128, 128, kernel_size=(5, 5), stride=(1, 1), padding=(2, 2), groups=128, bias=False)
                (dil_bn_k5_1): BatchNorm2d(128, eps=1e-05, momentum=0.1, affine=True, track_running_stats=True)
                (dil_conv_k7_2): Conv2d(128, 128, kernel_size=(7, 7), stride=(1, 1), padding=(6, 6), dilation=(2, 2), groups=128, bias=False)
                (dil_bn_k7_2): BatchNorm2d(128, eps=1e-05, momentum=0.1, affine=True, track_running_stats=True)
                (dil_conv_k3_3): Conv2d(128, 128, kernel_size=(3, 3), stride=(1, 1), padding=(3, 3), dilation=(3, 3), groups=128, bias=False)
                (dil_bn_k3_3): BatchNorm2d(128, eps=1e-05, momentum=0.1, affine=True, track_running_stats=True)
                (dil_conv_k3_4): Conv2d(128, 128, kernel_size=(3, 3), stride=(1, 1), padding=(4, 4), dilation=(4, 4), groups=128, bias=False)
                (dil_bn_k3_4): BatchNorm2d(128, eps=1e-05, momentum=0.1, affine=True, track_running_stats=True)
                (dil_conv_k3_5): Conv2d(128, 128, kernel_size=(3, 3), stride=(1, 1), padding=(5, 5), dilation=(5, 5), groups=128, bias=False)
                (dil_bn_k3_5): BatchNorm2d(128, eps=1e-05, momentum=0.1, affine=True, track_running_stats=True)
              )
              (norm): BatchNorm2d(128, eps=1e-05, momentum=0.1, affine=True, track_running_stats=True)
              (se): SEBlock(
                (down): Conv2d(128, 32, kernel_size=(1, 1), stride=(1, 1))
                (up): Conv2d(32, 128, kernel_size=(1, 1), stride=(1, 1))
                (nonlinear): ReLU(inplace=True)
              )
              (pwconv1): Sequential(
                (0): NCHWtoNHWC()
                (1): Linear(in_features=128, out_features=512, bias=True)
              )
              (act): Sequential(
                (0): GELU(approximate='none')
                (1): GRNwithNHWC()
              )
              (pwconv2): Sequential(
                (0): Linear(in_features=512, out_features=128, bias=False)
                (1): NHWCtoNCHW()
                (2): BatchNorm2d(128, eps=1e-05, momentum=0.1, affine=True, track_running_stats=True)
              )
              (drop_path): Identity()
            )
            (1): UniRepLKNetBlock(
              (dwconv): DilatedReparamBlock(
                (lk_origin): Conv2d(128, 128, kernel_size=(13, 13), stride=(1, 1), padding=(6, 6), groups=128, bias=False)
                (origin_bn): BatchNorm2d(128, eps=1e-05, momentum=0.1, affine=True, track_running_stats=True)
                (dil_conv_k5_1): Conv2d(128, 128, kernel_size=(5, 5), stride=(1, 1), padding=(2, 2), groups=128, bias=False)
                (dil_bn_k5_1): BatchNorm2d(128, eps=1e-05, momentum=0.1, affine=True, track_running_stats=True)
                (dil_conv_k7_2): Conv2d(128, 128, kernel_size=(7, 7), stride=(1, 1), padding=(6, 6), dilation=(2, 2), groups=128, bias=False)
                (dil_bn_k7_2): BatchNorm2d(128, eps=1e-05, momentum=0.1, affine=True, track_running_stats=True)
                (dil_conv_k3_3): Conv2d(128, 128, kernel_size=(3, 3), stride=(1, 1), padding=(3, 3), dilation=(3, 3), groups=128, bias=False)
                (dil_bn_k3_3): BatchNorm2d(128, eps=1e-05, momentum=0.1, affine=True, track_running_stats=True)
                (dil_conv_k3_4): Conv2d(128, 128, kernel_size=(3, 3), stride=(1, 1), padding=(4, 4), dilation=(4, 4), groups=128, bias=False)
                (dil_bn_k3_4): BatchNorm2d(128, eps=1e-05, momentum=0.1, affine=True, track_running_stats=True)
                (dil_conv_k3_5): Conv2d(128, 128, kernel_size=(3, 3), stride=(1, 1), padding=(5, 5), dilation=(5, 5), groups=128, bias=False)
                (dil_bn_k3_5): BatchNorm2d(128, eps=1e-05, momentum=0.1, affine=True, track_running_stats=True)
              )
              (norm): BatchNorm2d(128, eps=1e-05, momentum=0.1, affine=True, track_running_stats=True)
              (se): SEBlock(
                (down): Conv2d(128, 32, kernel_size=(1, 1), stride=(1, 1))
                (up): Conv2d(32, 128, kernel_size=(1, 1), stride=(1, 1))
                (nonlinear): ReLU(inplace=True)
              )
              (pwconv1): Sequential(
                (0): NCHWtoNHWC()
                (1): Linear(in_features=128, out_features=512, bias=True)
              )
              (act): Sequential(
                (0): GELU(approximate='none')
                (1): GRNwithNHWC()
              )
              (pwconv2): Sequential(
                (0): Linear(in_features=512, out_features=128, bias=False)
                (1): NHWCtoNCHW()
                (2): BatchNorm2d(128, eps=1e-05, momentum=0.1, affine=True, track_running_stats=True)
              )
              (drop_path): Identity()
            )
          )
          (2): Sequential(
            (0): UniRepLKNetBlock(
              (dwconv): DilatedReparamBlock(
                (lk_origin): Conv2d(256, 256, kernel_size=(13, 13), stride=(1, 1), padding=(6, 6), groups=256, bias=False)
                (origin_bn): BatchNorm2d(256, eps=1e-05, momentum=0.1, affine=True, track_running_stats=True)
                (dil_conv_k5_1): Conv2d(256, 256, kernel_size=(5, 5), stride=(1, 1), padding=(2, 2), groups=256, bias=False)
                (dil_bn_k5_1): BatchNorm2d(256, eps=1e-05, momentum=0.1, affine=True, track_running_stats=True)
                (dil_conv_k7_2): Conv2d(256, 256, kernel_size=(7, 7), stride=(1, 1), padding=(6, 6), dilation=(2, 2), groups=256, bias=False)
                (dil_bn_k7_2): BatchNorm2d(256, eps=1e-05, momentum=0.1, affine=True, track_running_stats=True)
                (dil_conv_k3_3): Conv2d(256, 256, kernel_size=(3, 3), stride=(1, 1), padding=(3, 3), dilation=(3, 3), groups=256, bias=False)
                (dil_bn_k3_3): BatchNorm2d(256, eps=1e-05, momentum=0.1, affine=True, track_running_stats=True)
                (dil_conv_k3_4): Conv2d(256, 256, kernel_size=(3, 3), stride=(1, 1), padding=(4, 4), dilation=(4, 4), groups=256, bias=False)
                (dil_bn_k3_4): BatchNorm2d(256, eps=1e-05, momentum=0.1, affine=True, track_running_stats=True)
                (dil_conv_k3_5): Conv2d(256, 256, kernel_size=(3, 3), stride=(1, 1), padding=(5, 5), dilation=(5, 5), groups=256, bias=False)
                (dil_bn_k3_5): BatchNorm2d(256, eps=1e-05, momentum=0.1, affine=True, track_running_stats=True)
              )
              (norm): BatchNorm2d(256, eps=1e-05, momentum=0.1, affine=True, track_running_stats=True)
              (se): SEBlock(
                (down): Conv2d(256, 64, kernel_size=(1, 1), stride=(1, 1))
                (up): Conv2d(64, 256, kernel_size=(1, 1), stride=(1, 1))
                (nonlinear): ReLU(inplace=True)
              )
              (pwconv1): Sequential(
                (0): NCHWtoNHWC()
                (1): Linear(in_features=256, out_features=1024, bias=True)
              )
              (act): Sequential(
                (0): GELU(approximate='none')
                (1): GRNwithNHWC()
              )
              (pwconv2): Sequential(
                (0): Linear(in_features=1024, out_features=256, bias=False)
                (1): NHWCtoNCHW()
                (2): BatchNorm2d(256, eps=1e-05, momentum=0.1, affine=True, track_running_stats=True)
              )
              (drop_path): Identity()
            )
            (1): UniRepLKNetBlock(
              (dwconv): DilatedReparamBlock(
                (lk_origin): Conv2d(256, 256, kernel_size=(13, 13), stride=(1, 1), padding=(6, 6), groups=256, bias=False)
                (origin_bn): BatchNorm2d(256, eps=1e-05, momentum=0.1, affine=True, track_running_stats=True)
                (dil_conv_k5_1): Conv2d(256, 256, kernel_size=(5, 5), stride=(1, 1), padding=(2, 2), groups=256, bias=False)
                (dil_bn_k5_1): BatchNorm2d(256, eps=1e-05, momentum=0.1, affine=True, track_running_stats=True)
                (dil_conv_k7_2): Conv2d(256, 256, kernel_size=(7, 7), stride=(1, 1), padding=(6, 6), dilation=(2, 2), groups=256, bias=False)
                (dil_bn_k7_2): BatchNorm2d(256, eps=1e-05, momentum=0.1, affine=True, track_running_stats=True)
                (dil_conv_k3_3): Conv2d(256, 256, kernel_size=(3, 3), stride=(1, 1), padding=(3, 3), dilation=(3, 3), groups=256, bias=False)
                (dil_bn_k3_3): BatchNorm2d(256, eps=1e-05, momentum=0.1, affine=True, track_running_stats=True)
                (dil_conv_k3_4): Conv2d(256, 256, kernel_size=(3, 3), stride=(1, 1), padding=(4, 4), dilation=(4, 4), groups=256, bias=False)
                (dil_bn_k3_4): BatchNorm2d(256, eps=1e-05, momentum=0.1, affine=True, track_running_stats=True)
                (dil_conv_k3_5): Conv2d(256, 256, kernel_size=(3, 3), stride=(1, 1), padding=(5, 5), dilation=(5, 5), groups=256, bias=False)
                (dil_bn_k3_5): BatchNorm2d(256, eps=1e-05, momentum=0.1, affine=True, track_running_stats=True)
              )
              (norm): BatchNorm2d(256, eps=1e-05, momentum=0.1, affine=True, track_running_stats=True)
              (se): SEBlock(
                (down): Conv2d(256, 64, kernel_size=(1, 1), stride=(1, 1))
                (up): Conv2d(64, 256, kernel_size=(1, 1), stride=(1, 1))
                (nonlinear): ReLU(inplace=True)
              )
              (pwconv1): Sequential(
                (0): NCHWtoNHWC()
                (1): Linear(in_features=256, out_features=1024, bias=True)
              )
              (act): Sequential(
                (0): GELU(approximate='none')
                (1): GRNwithNHWC()
              )
              (pwconv2): Sequential(
                (0): Linear(in_features=1024, out_features=256, bias=False)
                (1): NHWCtoNCHW()
                (2): BatchNorm2d(256, eps=1e-05, momentum=0.1, affine=True, track_running_stats=True)
              )
              (drop_path): Identity()
            )
            (2): UniRepLKNetBlock(
              (dwconv): DilatedReparamBlock(
                (lk_origin): Conv2d(256, 256, kernel_size=(13, 13), stride=(1, 1), padding=(6, 6), groups=256, bias=False)
                (origin_bn): BatchNorm2d(256, eps=1e-05, momentum=0.1, affine=True, track_running_stats=True)
                (dil_conv_k5_1): Conv2d(256, 256, kernel_size=(5, 5), stride=(1, 1), padding=(2, 2), groups=256, bias=False)
                (dil_bn_k5_1): BatchNorm2d(256, eps=1e-05, momentum=0.1, affine=True, track_running_stats=True)
                (dil_conv_k7_2): Conv2d(256, 256, kernel_size=(7, 7), stride=(1, 1), padding=(6, 6), dilation=(2, 2), groups=256, bias=False)
                (dil_bn_k7_2): BatchNorm2d(256, eps=1e-05, momentum=0.1, affine=True, track_running_stats=True)
                (dil_conv_k3_3): Conv2d(256, 256, kernel_size=(3, 3), stride=(1, 1), padding=(3, 3), dilation=(3, 3), groups=256, bias=False)
                (dil_bn_k3_3): BatchNorm2d(256, eps=1e-05, momentum=0.1, affine=True, track_running_stats=True)
                (dil_conv_k3_4): Conv2d(256, 256, kernel_size=(3, 3), stride=(1, 1), padding=(4, 4), dilation=(4, 4), groups=256, bias=False)
                (dil_bn_k3_4): BatchNorm2d(256, eps=1e-05, momentum=0.1, affine=True, track_running_stats=True)
                (dil_conv_k3_5): Conv2d(256, 256, kernel_size=(3, 3), stride=(1, 1), padding=(5, 5), dilation=(5, 5), groups=256, bias=False)
                (dil_bn_k3_5): BatchNorm2d(256, eps=1e-05, momentum=0.1, affine=True, track_running_stats=True)
              )
              (norm): BatchNorm2d(256, eps=1e-05, momentum=0.1, affine=True, track_running_stats=True)
              (se): SEBlock(
                (down): Conv2d(256, 64, kernel_size=(1, 1), stride=(1, 1))
                (up): Conv2d(64, 256, kernel_size=(1, 1), stride=(1, 1))
                (nonlinear): ReLU(inplace=True)
              )
              (pwconv1): Sequential(
                (0): NCHWtoNHWC()
                (1): Linear(in_features=256, out_features=1024, bias=True)
              )
              (act): Sequential(
                (0): GELU(approximate='none')
                (1): GRNwithNHWC()
              )
              (pwconv2): Sequential(
                (0): Linear(in_features=1024, out_features=256, bias=False)
                (1): NHWCtoNCHW()
                (2): BatchNorm2d(256, eps=1e-05, momentum=0.1, affine=True, track_running_stats=True)
              )
              (drop_path): Identity()
            )
            (3): UniRepLKNetBlock(
              (dwconv): DilatedReparamBlock(
                (lk_origin): Conv2d(256, 256, kernel_size=(13, 13), stride=(1, 1), padding=(6, 6), groups=256, bias=False)
                (origin_bn): BatchNorm2d(256, eps=1e-05, momentum=0.1, affine=True, track_running_stats=True)
                (dil_conv_k5_1): Conv2d(256, 256, kernel_size=(5, 5), stride=(1, 1), padding=(2, 2), groups=256, bias=False)
                (dil_bn_k5_1): BatchNorm2d(256, eps=1e-05, momentum=0.1, affine=True, track_running_stats=True)
                (dil_conv_k7_2): Conv2d(256, 256, kernel_size=(7, 7), stride=(1, 1), padding=(6, 6), dilation=(2, 2), groups=256, bias=False)
                (dil_bn_k7_2): BatchNorm2d(256, eps=1e-05, momentum=0.1, affine=True, track_running_stats=True)
                (dil_conv_k3_3): Conv2d(256, 256, kernel_size=(3, 3), stride=(1, 1), padding=(3, 3), dilation=(3, 3), groups=256, bias=False)
                (dil_bn_k3_3): BatchNorm2d(256, eps=1e-05, momentum=0.1, affine=True, track_running_stats=True)
                (dil_conv_k3_4): Conv2d(256, 256, kernel_size=(3, 3), stride=(1, 1), padding=(4, 4), dilation=(4, 4), groups=256, bias=False)
                (dil_bn_k3_4): BatchNorm2d(256, eps=1e-05, momentum=0.1, affine=True, track_running_stats=True)
                (dil_conv_k3_5): Conv2d(256, 256, kernel_size=(3, 3), stride=(1, 1), padding=(5, 5), dilation=(5, 5), groups=256, bias=False)
                (dil_bn_k3_5): BatchNorm2d(256, eps=1e-05, momentum=0.1, affine=True, track_running_stats=True)
              )
              (norm): BatchNorm2d(256, eps=1e-05, momentum=0.1, affine=True, track_running_stats=True)
              (se): SEBlock(
                (down): Conv2d(256, 64, kernel_size=(1, 1), stride=(1, 1))
                (up): Conv2d(64, 256, kernel_size=(1, 1), stride=(1, 1))
                (nonlinear): ReLU(inplace=True)
              )
              (pwconv1): Sequential(
                (0): NCHWtoNHWC()
                (1): Linear(in_features=256, out_features=1024, bias=True)
              )
              (act): Sequential(
                (0): GELU(approximate='none')
                (1): GRNwithNHWC()
              )
              (pwconv2): Sequential(
                (0): Linear(in_features=1024, out_features=256, bias=False)
                (1): NHWCtoNCHW()
                (2): BatchNorm2d(256, eps=1e-05, momentum=0.1, affine=True, track_running_stats=True)
              )
              (drop_path): Identity()
            )
            (4): UniRepLKNetBlock(
              (dwconv): DilatedReparamBlock(
                (lk_origin): Conv2d(256, 256, kernel_size=(13, 13), stride=(1, 1), padding=(6, 6), groups=256, bias=False)
                (origin_bn): BatchNorm2d(256, eps=1e-05, momentum=0.1, affine=True, track_running_stats=True)
                (dil_conv_k5_1): Conv2d(256, 256, kernel_size=(5, 5), stride=(1, 1), padding=(2, 2), groups=256, bias=False)
                (dil_bn_k5_1): BatchNorm2d(256, eps=1e-05, momentum=0.1, affine=True, track_running_stats=True)
                (dil_conv_k7_2): Conv2d(256, 256, kernel_size=(7, 7), stride=(1, 1), padding=(6, 6), dilation=(2, 2), groups=256, bias=False)
                (dil_bn_k7_2): BatchNorm2d(256, eps=1e-05, momentum=0.1, affine=True, track_running_stats=True)
                (dil_conv_k3_3): Conv2d(256, 256, kernel_size=(3, 3), stride=(1, 1), padding=(3, 3), dilation=(3, 3), groups=256, bias=False)
                (dil_bn_k3_3): BatchNorm2d(256, eps=1e-05, momentum=0.1, affine=True, track_running_stats=True)
                (dil_conv_k3_4): Conv2d(256, 256, kernel_size=(3, 3), stride=(1, 1), padding=(4, 4), dilation=(4, 4), groups=256, bias=False)
                (dil_bn_k3_4): BatchNorm2d(256, eps=1e-05, momentum=0.1, affine=True, track_running_stats=True)
                (dil_conv_k3_5): Conv2d(256, 256, kernel_size=(3, 3), stride=(1, 1), padding=(5, 5), dilation=(5, 5), groups=256, bias=False)
                (dil_bn_k3_5): BatchNorm2d(256, eps=1e-05, momentum=0.1, affine=True, track_running_stats=True)
              )
              (norm): BatchNorm2d(256, eps=1e-05, momentum=0.1, affine=True, track_running_stats=True)
              (se): SEBlock(
                (down): Conv2d(256, 64, kernel_size=(1, 1), stride=(1, 1))
                (up): Conv2d(64, 256, kernel_size=(1, 1), stride=(1, 1))
                (nonlinear): ReLU(inplace=True)
              )
              (pwconv1): Sequential(
                (0): NCHWtoNHWC()
                (1): Linear(in_features=256, out_features=1024, bias=True)
              )
              (act): Sequential(
                (0): GELU(approximate='none')
                (1): GRNwithNHWC()
              )
              (pwconv2): Sequential(
                (0): Linear(in_features=1024, out_features=256, bias=False)
                (1): NHWCtoNCHW()
                (2): BatchNorm2d(256, eps=1e-05, momentum=0.1, affine=True, track_running_stats=True)
              )
              (drop_path): Identity()
            )
            (5): UniRepLKNetBlock(
              (dwconv): DilatedReparamBlock(
                (lk_origin): Conv2d(256, 256, kernel_size=(13, 13), stride=(1, 1), padding=(6, 6), groups=256, bias=False)
                (origin_bn): BatchNorm2d(256, eps=1e-05, momentum=0.1, affine=True, track_running_stats=True)
                (dil_conv_k5_1): Conv2d(256, 256, kernel_size=(5, 5), stride=(1, 1), padding=(2, 2), groups=256, bias=False)
                (dil_bn_k5_1): BatchNorm2d(256, eps=1e-05, momentum=0.1, affine=True, track_running_stats=True)
                (dil_conv_k7_2): Conv2d(256, 256, kernel_size=(7, 7), stride=(1, 1), padding=(6, 6), dilation=(2, 2), groups=256, bias=False)
                (dil_bn_k7_2): BatchNorm2d(256, eps=1e-05, momentum=0.1, affine=True, track_running_stats=True)
                (dil_conv_k3_3): Conv2d(256, 256, kernel_size=(3, 3), stride=(1, 1), padding=(3, 3), dilation=(3, 3), groups=256, bias=False)
                (dil_bn_k3_3): BatchNorm2d(256, eps=1e-05, momentum=0.1, affine=True, track_running_stats=True)
                (dil_conv_k3_4): Conv2d(256, 256, kernel_size=(3, 3), stride=(1, 1), padding=(4, 4), dilation=(4, 4), groups=256, bias=False)
                (dil_bn_k3_4): BatchNorm2d(256, eps=1e-05, momentum=0.1, affine=True, track_running_stats=True)
                (dil_conv_k3_5): Conv2d(256, 256, kernel_size=(3, 3), stride=(1, 1), padding=(5, 5), dilation=(5, 5), groups=256, bias=False)
                (dil_bn_k3_5): BatchNorm2d(256, eps=1e-05, momentum=0.1, affine=True, track_running_stats=True)
              )
              (norm): BatchNorm2d(256, eps=1e-05, momentum=0.1, affine=True, track_running_stats=True)
              (se): SEBlock(
                (down): Conv2d(256, 64, kernel_size=(1, 1), stride=(1, 1))
                (up): Conv2d(64, 256, kernel_size=(1, 1), stride=(1, 1))
                (nonlinear): ReLU(inplace=True)
              )
              (pwconv1): Sequential(
                (0): NCHWtoNHWC()
                (1): Linear(in_features=256, out_features=1024, bias=True)
              )
              (act): Sequential(
                (0): GELU(approximate='none')
                (1): GRNwithNHWC()
              )
              (pwconv2): Sequential(
                (0): Linear(in_features=1024, out_features=256, bias=False)
                (1): NHWCtoNCHW()
                (2): BatchNorm2d(256, eps=1e-05, momentum=0.1, affine=True, track_running_stats=True)
              )
              (drop_path): Identity()
            )
          )
          (3): Sequential(
            (0): UniRepLKNetBlock(
              (dwconv): DilatedReparamBlock(
                (lk_origin): Conv2d(512, 512, kernel_size=(13, 13), stride=(1, 1), padding=(6, 6), groups=512, bias=False)
                (origin_bn): BatchNorm2d(512, eps=1e-05, momentum=0.1, affine=True, track_running_stats=True)
                (dil_conv_k5_1): Conv2d(512, 512, kernel_size=(5, 5), stride=(1, 1), padding=(2, 2), groups=512, bias=False)
                (dil_bn_k5_1): BatchNorm2d(512, eps=1e-05, momentum=0.1, affine=True, track_running_stats=True)
                (dil_conv_k7_2): Conv2d(512, 512, kernel_size=(7, 7), stride=(1, 1), padding=(6, 6), dilation=(2, 2), groups=512, bias=False)
                (dil_bn_k7_2): BatchNorm2d(512, eps=1e-05, momentum=0.1, affine=True, track_running_stats=True)
                (dil_conv_k3_3): Conv2d(512, 512, kernel_size=(3, 3), stride=(1, 1), padding=(3, 3), dilation=(3, 3), groups=512, bias=False)
                (dil_bn_k3_3): BatchNorm2d(512, eps=1e-05, momentum=0.1, affine=True, track_running_stats=True)
                (dil_conv_k3_4): Conv2d(512, 512, kernel_size=(3, 3), stride=(1, 1), padding=(4, 4), dilation=(4, 4), groups=512, bias=False)
                (dil_bn_k3_4): BatchNorm2d(512, eps=1e-05, momentum=0.1, affine=True, track_running_stats=True)
                (dil_conv_k3_5): Conv2d(512, 512, kernel_size=(3, 3), stride=(1, 1), padding=(5, 5), dilation=(5, 5), groups=512, bias=False)
                (dil_bn_k3_5): BatchNorm2d(512, eps=1e-05, momentum=0.1, affine=True, track_running_stats=True)
              )
              (norm): BatchNorm2d(512, eps=1e-05, momentum=0.1, affine=True, track_running_stats=True)
              (se): SEBlock(
                (down): Conv2d(512, 128, kernel_size=(1, 1), stride=(1, 1))
                (up): Conv2d(128, 512, kernel_size=(1, 1), stride=(1, 1))
                (nonlinear): ReLU(inplace=True)
              )
              (pwconv1): Sequential(
                (0): NCHWtoNHWC()
                (1): Linear(in_features=512, out_features=2048, bias=True)
              )
              (act): Sequential(
                (0): GELU(approximate='none')
                (1): GRNwithNHWC()
              )
              (pwconv2): Sequential(
                (0): Linear(in_features=2048, out_features=512, bias=False)
                (1): NHWCtoNCHW()
                (2): BatchNorm2d(512, eps=1e-05, momentum=0.1, affine=True, track_running_stats=True)
              )
              (drop_path): Identity()
            )
            (1): UniRepLKNetBlock(
              (dwconv): DilatedReparamBlock(
                (lk_origin): Conv2d(512, 512, kernel_size=(13, 13), stride=(1, 1), padding=(6, 6), groups=512, bias=False)
                (origin_bn): BatchNorm2d(512, eps=1e-05, momentum=0.1, affine=True, track_running_stats=True)
                (dil_conv_k5_1): Conv2d(512, 512, kernel_size=(5, 5), stride=(1, 1), padding=(2, 2), groups=512, bias=False)
                (dil_bn_k5_1): BatchNorm2d(512, eps=1e-05, momentum=0.1, affine=True, track_running_stats=True)
                (dil_conv_k7_2): Conv2d(512, 512, kernel_size=(7, 7), stride=(1, 1), padding=(6, 6), dilation=(2, 2), groups=512, bias=False)
                (dil_bn_k7_2): BatchNorm2d(512, eps=1e-05, momentum=0.1, affine=True, track_running_stats=True)
                (dil_conv_k3_3): Conv2d(512, 512, kernel_size=(3, 3), stride=(1, 1), padding=(3, 3), dilation=(3, 3), groups=512, bias=False)
                (dil_bn_k3_3): BatchNorm2d(512, eps=1e-05, momentum=0.1, affine=True, track_running_stats=True)
                (dil_conv_k3_4): Conv2d(512, 512, kernel_size=(3, 3), stride=(1, 1), padding=(4, 4), dilation=(4, 4), groups=512, bias=False)
                (dil_bn_k3_4): BatchNorm2d(512, eps=1e-05, momentum=0.1, affine=True, track_running_stats=True)
                (dil_conv_k3_5): Conv2d(512, 512, kernel_size=(3, 3), stride=(1, 1), padding=(5, 5), dilation=(5, 5), groups=512, bias=False)
                (dil_bn_k3_5): BatchNorm2d(512, eps=1e-05, momentum=0.1, affine=True, track_running_stats=True)
              )
              (norm): BatchNorm2d(512, eps=1e-05, momentum=0.1, affine=True, track_running_stats=True)
              (se): SEBlock(
                (down): Conv2d(512, 128, kernel_size=(1, 1), stride=(1, 1))
                (up): Conv2d(128, 512, kernel_size=(1, 1), stride=(1, 1))
                (nonlinear): ReLU(inplace=True)
              )
              (pwconv1): Sequential(
                (0): NCHWtoNHWC()
                (1): Linear(in_features=512, out_features=2048, bias=True)
              )
              (act): Sequential(
                (0): GELU(approximate='none')
                (1): GRNwithNHWC()
              )
              (pwconv2): Sequential(
                (0): Linear(in_features=2048, out_features=512, bias=False)
                (1): NHWCtoNCHW()
                (2): BatchNorm2d(512, eps=1e-05, momentum=0.1, affine=True, track_running_stats=True)
              )
              (drop_path): Identity()
            )
          )
        )
        (norm): LayerNorm((512,), eps=1e-06, elementwise_affine=True)
        (head): Linear(in_features=512, out_features=1000, bias=True)
      )
      (proj): Identity()
    )
    (wave): UniRepLKNetWave(
      (dropout): Dropout(p=0.1, inplace=False)
      (backbone): UniRepLKNet(
        (downsample_layers): ModuleList(
          (0): Sequential(
            (0): Conv2d(1, 32, kernel_size=(3, 3), stride=(2, 2), padding=(1, 1))
            (1): LayerNorm()
            (2): GELU(approximate='none')
            (3): Conv2d(32, 64, kernel_size=(3, 3), stride=(2, 2), padding=(1, 1))
            (4): LayerNorm()
          )
          (1): Sequential(
            (0): Conv2d(64, 128, kernel_size=(3, 3), stride=(2, 2), padding=(1, 1))
            (1): LayerNorm()
          )
          (2): Sequential(
            (0): Conv2d(128, 256, kernel_size=(3, 3), stride=(2, 2), padding=(1, 1))
            (1): LayerNorm()
          )
          (3): Sequential(
            (0): Conv2d(256, 512, kernel_size=(3, 3), stride=(2, 2), padding=(1, 1))
            (1): LayerNorm()
          )
        )
        (stages): ModuleList(
          (0): Sequential(
            (0): UniRepLKNetBlock(
              (dwconv): Conv2d(64, 64, kernel_size=(3, 3), stride=(1, 1), padding=(1, 1), groups=64, bias=False)
              (norm): BatchNorm2d(64, eps=1e-05, momentum=0.1, affine=True, track_running_stats=True)
              (se): SEBlock(
                (down): Conv2d(64, 16, kernel_size=(1, 1), stride=(1, 1))
                (up): Conv2d(16, 64, kernel_size=(1, 1), stride=(1, 1))
                (nonlinear): ReLU(inplace=True)
              )
              (pwconv1): Sequential(
                (0): NCHWtoNHWC()
                (1): Linear(in_features=64, out_features=256, bias=True)
              )
              (act): Sequential(
                (0): GELU(approximate='none')
                (1): GRNwithNHWC()
              )
              (pwconv2): Sequential(
                (0): Linear(in_features=256, out_features=64, bias=False)
                (1): NHWCtoNCHW()
                (2): BatchNorm2d(64, eps=1e-05, momentum=0.1, affine=True, track_running_stats=True)
              )
              (drop_path): Identity()
            )
            (1): UniRepLKNetBlock(
              (dwconv): Conv2d(64, 64, kernel_size=(3, 3), stride=(1, 1), padding=(1, 1), groups=64, bias=False)
              (norm): BatchNorm2d(64, eps=1e-05, momentum=0.1, affine=True, track_running_stats=True)
              (se): SEBlock(
                (down): Conv2d(64, 16, kernel_size=(1, 1), stride=(1, 1))
                (up): Conv2d(16, 64, kernel_size=(1, 1), stride=(1, 1))
                (nonlinear): ReLU(inplace=True)
              )
              (pwconv1): Sequential(
                (0): NCHWtoNHWC()
                (1): Linear(in_features=64, out_features=256, bias=True)
              )
              (act): Sequential(
                (0): GELU(approximate='none')
                (1): GRNwithNHWC()
              )
              (pwconv2): Sequential(
                (0): Linear(in_features=256, out_features=64, bias=False)
                (1): NHWCtoNCHW()
                (2): BatchNorm2d(64, eps=1e-05, momentum=0.1, affine=True, track_running_stats=True)
              )
              (drop_path): Identity()
            )
          )
          (1): Sequential(
            (0): UniRepLKNetBlock(
              (dwconv): DilatedReparamBlock(
                (lk_origin): Conv2d(128, 128, kernel_size=(13, 13), stride=(1, 1), padding=(6, 6), groups=128, bias=False)
                (origin_bn): BatchNorm2d(128, eps=1e-05, momentum=0.1, affine=True, track_running_stats=True)
                (dil_conv_k5_1): Conv2d(128, 128, kernel_size=(5, 5), stride=(1, 1), padding=(2, 2), groups=128, bias=False)
                (dil_bn_k5_1): BatchNorm2d(128, eps=1e-05, momentum=0.1, affine=True, track_running_stats=True)
                (dil_conv_k7_2): Conv2d(128, 128, kernel_size=(7, 7), stride=(1, 1), padding=(6, 6), dilation=(2, 2), groups=128, bias=False)
                (dil_bn_k7_2): BatchNorm2d(128, eps=1e-05, momentum=0.1, affine=True, track_running_stats=True)
                (dil_conv_k3_3): Conv2d(128, 128, kernel_size=(3, 3), stride=(1, 1), padding=(3, 3), dilation=(3, 3), groups=128, bias=False)
                (dil_bn_k3_3): BatchNorm2d(128, eps=1e-05, momentum=0.1, affine=True, track_running_stats=True)
                (dil_conv_k3_4): Conv2d(128, 128, kernel_size=(3, 3), stride=(1, 1), padding=(4, 4), dilation=(4, 4), groups=128, bias=False)
                (dil_bn_k3_4): BatchNorm2d(128, eps=1e-05, momentum=0.1, affine=True, track_running_stats=True)
                (dil_conv_k3_5): Conv2d(128, 128, kernel_size=(3, 3), stride=(1, 1), padding=(5, 5), dilation=(5, 5), groups=128, bias=False)
                (dil_bn_k3_5): BatchNorm2d(128, eps=1e-05, momentum=0.1, affine=True, track_running_stats=True)
              )
              (norm): BatchNorm2d(128, eps=1e-05, momentum=0.1, affine=True, track_running_stats=True)
              (se): SEBlock(
                (down): Conv2d(128, 32, kernel_size=(1, 1), stride=(1, 1))
                (up): Conv2d(32, 128, kernel_size=(1, 1), stride=(1, 1))
                (nonlinear): ReLU(inplace=True)
              )
              (pwconv1): Sequential(
                (0): NCHWtoNHWC()
                (1): Linear(in_features=128, out_features=512, bias=True)
              )
              (act): Sequential(
                (0): GELU(approximate='none')
                (1): GRNwithNHWC()
              )
              (pwconv2): Sequential(
                (0): Linear(in_features=512, out_features=128, bias=False)
                (1): NHWCtoNCHW()
                (2): BatchNorm2d(128, eps=1e-05, momentum=0.1, affine=True, track_running_stats=True)
              )
              (drop_path): Identity()
            )
            (1): UniRepLKNetBlock(
              (dwconv): DilatedReparamBlock(
                (lk_origin): Conv2d(128, 128, kernel_size=(13, 13), stride=(1, 1), padding=(6, 6), groups=128, bias=False)
                (origin_bn): BatchNorm2d(128, eps=1e-05, momentum=0.1, affine=True, track_running_stats=True)
                (dil_conv_k5_1): Conv2d(128, 128, kernel_size=(5, 5), stride=(1, 1), padding=(2, 2), groups=128, bias=False)
                (dil_bn_k5_1): BatchNorm2d(128, eps=1e-05, momentum=0.1, affine=True, track_running_stats=True)
                (dil_conv_k7_2): Conv2d(128, 128, kernel_size=(7, 7), stride=(1, 1), padding=(6, 6), dilation=(2, 2), groups=128, bias=False)
                (dil_bn_k7_2): BatchNorm2d(128, eps=1e-05, momentum=0.1, affine=True, track_running_stats=True)
                (dil_conv_k3_3): Conv2d(128, 128, kernel_size=(3, 3), stride=(1, 1), padding=(3, 3), dilation=(3, 3), groups=128, bias=False)
                (dil_bn_k3_3): BatchNorm2d(128, eps=1e-05, momentum=0.1, affine=True, track_running_stats=True)
                (dil_conv_k3_4): Conv2d(128, 128, kernel_size=(3, 3), stride=(1, 1), padding=(4, 4), dilation=(4, 4), groups=128, bias=False)
                (dil_bn_k3_4): BatchNorm2d(128, eps=1e-05, momentum=0.1, affine=True, track_running_stats=True)
                (dil_conv_k3_5): Conv2d(128, 128, kernel_size=(3, 3), stride=(1, 1), padding=(5, 5), dilation=(5, 5), groups=128, bias=False)
                (dil_bn_k3_5): BatchNorm2d(128, eps=1e-05, momentum=0.1, affine=True, track_running_stats=True)
              )
              (norm): BatchNorm2d(128, eps=1e-05, momentum=0.1, affine=True, track_running_stats=True)
              (se): SEBlock(
                (down): Conv2d(128, 32, kernel_size=(1, 1), stride=(1, 1))
                (up): Conv2d(32, 128, kernel_size=(1, 1), stride=(1, 1))
                (nonlinear): ReLU(inplace=True)
              )
              (pwconv1): Sequential(
                (0): NCHWtoNHWC()
                (1): Linear(in_features=128, out_features=512, bias=True)
              )
              (act): Sequential(
                (0): GELU(approximate='none')
                (1): GRNwithNHWC()
              )
              (pwconv2): Sequential(
                (0): Linear(in_features=512, out_features=128, bias=False)
                (1): NHWCtoNCHW()
                (2): BatchNorm2d(128, eps=1e-05, momentum=0.1, affine=True, track_running_stats=True)
              )
              (drop_path): Identity()
            )
          )
          (2): Sequential(
            (0): UniRepLKNetBlock(
              (dwconv): DilatedReparamBlock(
                (lk_origin): Conv2d(256, 256, kernel_size=(13, 13), stride=(1, 1), padding=(6, 6), groups=256, bias=False)
                (origin_bn): BatchNorm2d(256, eps=1e-05, momentum=0.1, affine=True, track_running_stats=True)
                (dil_conv_k5_1): Conv2d(256, 256, kernel_size=(5, 5), stride=(1, 1), padding=(2, 2), groups=256, bias=False)
                (dil_bn_k5_1): BatchNorm2d(256, eps=1e-05, momentum=0.1, affine=True, track_running_stats=True)
                (dil_conv_k7_2): Conv2d(256, 256, kernel_size=(7, 7), stride=(1, 1), padding=(6, 6), dilation=(2, 2), groups=256, bias=False)
                (dil_bn_k7_2): BatchNorm2d(256, eps=1e-05, momentum=0.1, affine=True, track_running_stats=True)
                (dil_conv_k3_3): Conv2d(256, 256, kernel_size=(3, 3), stride=(1, 1), padding=(3, 3), dilation=(3, 3), groups=256, bias=False)
                (dil_bn_k3_3): BatchNorm2d(256, eps=1e-05, momentum=0.1, affine=True, track_running_stats=True)
                (dil_conv_k3_4): Conv2d(256, 256, kernel_size=(3, 3), stride=(1, 1), padding=(4, 4), dilation=(4, 4), groups=256, bias=False)
                (dil_bn_k3_4): BatchNorm2d(256, eps=1e-05, momentum=0.1, affine=True, track_running_stats=True)
                (dil_conv_k3_5): Conv2d(256, 256, kernel_size=(3, 3), stride=(1, 1), padding=(5, 5), dilation=(5, 5), groups=256, bias=False)
                (dil_bn_k3_5): BatchNorm2d(256, eps=1e-05, momentum=0.1, affine=True, track_running_stats=True)
              )
              (norm): BatchNorm2d(256, eps=1e-05, momentum=0.1, affine=True, track_running_stats=True)
              (se): SEBlock(
                (down): Conv2d(256, 64, kernel_size=(1, 1), stride=(1, 1))
                (up): Conv2d(64, 256, kernel_size=(1, 1), stride=(1, 1))
                (nonlinear): ReLU(inplace=True)
              )
              (pwconv1): Sequential(
                (0): NCHWtoNHWC()
                (1): Linear(in_features=256, out_features=1024, bias=True)
              )
              (act): Sequential(
                (0): GELU(approximate='none')
                (1): GRNwithNHWC()
              )
              (pwconv2): Sequential(
                (0): Linear(in_features=1024, out_features=256, bias=False)
                (1): NHWCtoNCHW()
                (2): BatchNorm2d(256, eps=1e-05, momentum=0.1, affine=True, track_running_stats=True)
              )
              (drop_path): Identity()
            )
            (1): UniRepLKNetBlock(
              (dwconv): DilatedReparamBlock(
                (lk_origin): Conv2d(256, 256, kernel_size=(13, 13), stride=(1, 1), padding=(6, 6), groups=256, bias=False)
                (origin_bn): BatchNorm2d(256, eps=1e-05, momentum=0.1, affine=True, track_running_stats=True)
                (dil_conv_k5_1): Conv2d(256, 256, kernel_size=(5, 5), stride=(1, 1), padding=(2, 2), groups=256, bias=False)
                (dil_bn_k5_1): BatchNorm2d(256, eps=1e-05, momentum=0.1, affine=True, track_running_stats=True)
                (dil_conv_k7_2): Conv2d(256, 256, kernel_size=(7, 7), stride=(1, 1), padding=(6, 6), dilation=(2, 2), groups=256, bias=False)
                (dil_bn_k7_2): BatchNorm2d(256, eps=1e-05, momentum=0.1, affine=True, track_running_stats=True)
                (dil_conv_k3_3): Conv2d(256, 256, kernel_size=(3, 3), stride=(1, 1), padding=(3, 3), dilation=(3, 3), groups=256, bias=False)
                (dil_bn_k3_3): BatchNorm2d(256, eps=1e-05, momentum=0.1, affine=True, track_running_stats=True)
                (dil_conv_k3_4): Conv2d(256, 256, kernel_size=(3, 3), stride=(1, 1), padding=(4, 4), dilation=(4, 4), groups=256, bias=False)
                (dil_bn_k3_4): BatchNorm2d(256, eps=1e-05, momentum=0.1, affine=True, track_running_stats=True)
                (dil_conv_k3_5): Conv2d(256, 256, kernel_size=(3, 3), stride=(1, 1), padding=(5, 5), dilation=(5, 5), groups=256, bias=False)
                (dil_bn_k3_5): BatchNorm2d(256, eps=1e-05, momentum=0.1, affine=True, track_running_stats=True)
              )
              (norm): BatchNorm2d(256, eps=1e-05, momentum=0.1, affine=True, track_running_stats=True)
              (se): SEBlock(
                (down): Conv2d(256, 64, kernel_size=(1, 1), stride=(1, 1))
                (up): Conv2d(64, 256, kernel_size=(1, 1), stride=(1, 1))
                (nonlinear): ReLU(inplace=True)
              )
              (pwconv1): Sequential(
                (0): NCHWtoNHWC()
                (1): Linear(in_features=256, out_features=1024, bias=True)
              )
              (act): Sequential(
                (0): GELU(approximate='none')
                (1): GRNwithNHWC()
              )
              (pwconv2): Sequential(
                (0): Linear(in_features=1024, out_features=256, bias=False)
                (1): NHWCtoNCHW()
                (2): BatchNorm2d(256, eps=1e-05, momentum=0.1, affine=True, track_running_stats=True)
              )
              (drop_path): Identity()
            )
            (2): UniRepLKNetBlock(
              (dwconv): DilatedReparamBlock(
                (lk_origin): Conv2d(256, 256, kernel_size=(13, 13), stride=(1, 1), padding=(6, 6), groups=256, bias=False)
                (origin_bn): BatchNorm2d(256, eps=1e-05, momentum=0.1, affine=True, track_running_stats=True)
                (dil_conv_k5_1): Conv2d(256, 256, kernel_size=(5, 5), stride=(1, 1), padding=(2, 2), groups=256, bias=False)
                (dil_bn_k5_1): BatchNorm2d(256, eps=1e-05, momentum=0.1, affine=True, track_running_stats=True)
                (dil_conv_k7_2): Conv2d(256, 256, kernel_size=(7, 7), stride=(1, 1), padding=(6, 6), dilation=(2, 2), groups=256, bias=False)
                (dil_bn_k7_2): BatchNorm2d(256, eps=1e-05, momentum=0.1, affine=True, track_running_stats=True)
                (dil_conv_k3_3): Conv2d(256, 256, kernel_size=(3, 3), stride=(1, 1), padding=(3, 3), dilation=(3, 3), groups=256, bias=False)
                (dil_bn_k3_3): BatchNorm2d(256, eps=1e-05, momentum=0.1, affine=True, track_running_stats=True)
                (dil_conv_k3_4): Conv2d(256, 256, kernel_size=(3, 3), stride=(1, 1), padding=(4, 4), dilation=(4, 4), groups=256, bias=False)
                (dil_bn_k3_4): BatchNorm2d(256, eps=1e-05, momentum=0.1, affine=True, track_running_stats=True)
                (dil_conv_k3_5): Conv2d(256, 256, kernel_size=(3, 3), stride=(1, 1), padding=(5, 5), dilation=(5, 5), groups=256, bias=False)
                (dil_bn_k3_5): BatchNorm2d(256, eps=1e-05, momentum=0.1, affine=True, track_running_stats=True)
              )
              (norm): BatchNorm2d(256, eps=1e-05, momentum=0.1, affine=True, track_running_stats=True)
              (se): SEBlock(
                (down): Conv2d(256, 64, kernel_size=(1, 1), stride=(1, 1))
                (up): Conv2d(64, 256, kernel_size=(1, 1), stride=(1, 1))
                (nonlinear): ReLU(inplace=True)
              )
              (pwconv1): Sequential(
                (0): NCHWtoNHWC()
                (1): Linear(in_features=256, out_features=1024, bias=True)
              )
              (act): Sequential(
                (0): GELU(approximate='none')
                (1): GRNwithNHWC()
              )
              (pwconv2): Sequential(
                (0): Linear(in_features=1024, out_features=256, bias=False)
                (1): NHWCtoNCHW()
                (2): BatchNorm2d(256, eps=1e-05, momentum=0.1, affine=True, track_running_stats=True)
              )
              (drop_path): Identity()
            )
            (3): UniRepLKNetBlock(
              (dwconv): DilatedReparamBlock(
                (lk_origin): Conv2d(256, 256, kernel_size=(13, 13), stride=(1, 1), padding=(6, 6), groups=256, bias=False)
                (origin_bn): BatchNorm2d(256, eps=1e-05, momentum=0.1, affine=True, track_running_stats=True)
                (dil_conv_k5_1): Conv2d(256, 256, kernel_size=(5, 5), stride=(1, 1), padding=(2, 2), groups=256, bias=False)
                (dil_bn_k5_1): BatchNorm2d(256, eps=1e-05, momentum=0.1, affine=True, track_running_stats=True)
                (dil_conv_k7_2): Conv2d(256, 256, kernel_size=(7, 7), stride=(1, 1), padding=(6, 6), dilation=(2, 2), groups=256, bias=False)
                (dil_bn_k7_2): BatchNorm2d(256, eps=1e-05, momentum=0.1, affine=True, track_running_stats=True)
                (dil_conv_k3_3): Conv2d(256, 256, kernel_size=(3, 3), stride=(1, 1), padding=(3, 3), dilation=(3, 3), groups=256, bias=False)
                (dil_bn_k3_3): BatchNorm2d(256, eps=1e-05, momentum=0.1, affine=True, track_running_stats=True)
                (dil_conv_k3_4): Conv2d(256, 256, kernel_size=(3, 3), stride=(1, 1), padding=(4, 4), dilation=(4, 4), groups=256, bias=False)
                (dil_bn_k3_4): BatchNorm2d(256, eps=1e-05, momentum=0.1, affine=True, track_running_stats=True)
                (dil_conv_k3_5): Conv2d(256, 256, kernel_size=(3, 3), stride=(1, 1), padding=(5, 5), dilation=(5, 5), groups=256, bias=False)
                (dil_bn_k3_5): BatchNorm2d(256, eps=1e-05, momentum=0.1, affine=True, track_running_stats=True)
              )
              (norm): BatchNorm2d(256, eps=1e-05, momentum=0.1, affine=True, track_running_stats=True)
              (se): SEBlock(
                (down): Conv2d(256, 64, kernel_size=(1, 1), stride=(1, 1))
                (up): Conv2d(64, 256, kernel_size=(1, 1), stride=(1, 1))
                (nonlinear): ReLU(inplace=True)
              )
              (pwconv1): Sequential(
                (0): NCHWtoNHWC()
                (1): Linear(in_features=256, out_features=1024, bias=True)
              )
              (act): Sequential(
                (0): GELU(approximate='none')
                (1): GRNwithNHWC()
              )
              (pwconv2): Sequential(
                (0): Linear(in_features=1024, out_features=256, bias=False)
                (1): NHWCtoNCHW()
                (2): BatchNorm2d(256, eps=1e-05, momentum=0.1, affine=True, track_running_stats=True)
              )
              (drop_path): Identity()
            )
            (4): UniRepLKNetBlock(
              (dwconv): DilatedReparamBlock(
                (lk_origin): Conv2d(256, 256, kernel_size=(13, 13), stride=(1, 1), padding=(6, 6), groups=256, bias=False)
                (origin_bn): BatchNorm2d(256, eps=1e-05, momentum=0.1, affine=True, track_running_stats=True)
                (dil_conv_k5_1): Conv2d(256, 256, kernel_size=(5, 5), stride=(1, 1), padding=(2, 2), groups=256, bias=False)
                (dil_bn_k5_1): BatchNorm2d(256, eps=1e-05, momentum=0.1, affine=True, track_running_stats=True)
                (dil_conv_k7_2): Conv2d(256, 256, kernel_size=(7, 7), stride=(1, 1), padding=(6, 6), dilation=(2, 2), groups=256, bias=False)
                (dil_bn_k7_2): BatchNorm2d(256, eps=1e-05, momentum=0.1, affine=True, track_running_stats=True)
                (dil_conv_k3_3): Conv2d(256, 256, kernel_size=(3, 3), stride=(1, 1), padding=(3, 3), dilation=(3, 3), groups=256, bias=False)
                (dil_bn_k3_3): BatchNorm2d(256, eps=1e-05, momentum=0.1, affine=True, track_running_stats=True)
                (dil_conv_k3_4): Conv2d(256, 256, kernel_size=(3, 3), stride=(1, 1), padding=(4, 4), dilation=(4, 4), groups=256, bias=False)
                (dil_bn_k3_4): BatchNorm2d(256, eps=1e-05, momentum=0.1, affine=True, track_running_stats=True)
                (dil_conv_k3_5): Conv2d(256, 256, kernel_size=(3, 3), stride=(1, 1), padding=(5, 5), dilation=(5, 5), groups=256, bias=False)
                (dil_bn_k3_5): BatchNorm2d(256, eps=1e-05, momentum=0.1, affine=True, track_running_stats=True)
              )
              (norm): BatchNorm2d(256, eps=1e-05, momentum=0.1, affine=True, track_running_stats=True)
              (se): SEBlock(
                (down): Conv2d(256, 64, kernel_size=(1, 1), stride=(1, 1))
                (up): Conv2d(64, 256, kernel_size=(1, 1), stride=(1, 1))
                (nonlinear): ReLU(inplace=True)
              )
              (pwconv1): Sequential(
                (0): NCHWtoNHWC()
                (1): Linear(in_features=256, out_features=1024, bias=True)
              )
              (act): Sequential(
                (0): GELU(approximate='none')
                (1): GRNwithNHWC()
              )
              (pwconv2): Sequential(
                (0): Linear(in_features=1024, out_features=256, bias=False)
                (1): NHWCtoNCHW()
                (2): BatchNorm2d(256, eps=1e-05, momentum=0.1, affine=True, track_running_stats=True)
              )
              (drop_path): Identity()
            )
            (5): UniRepLKNetBlock(
              (dwconv): DilatedReparamBlock(
                (lk_origin): Conv2d(256, 256, kernel_size=(13, 13), stride=(1, 1), padding=(6, 6), groups=256, bias=False)
                (origin_bn): BatchNorm2d(256, eps=1e-05, momentum=0.1, affine=True, track_running_stats=True)
                (dil_conv_k5_1): Conv2d(256, 256, kernel_size=(5, 5), stride=(1, 1), padding=(2, 2), groups=256, bias=False)
                (dil_bn_k5_1): BatchNorm2d(256, eps=1e-05, momentum=0.1, affine=True, track_running_stats=True)
                (dil_conv_k7_2): Conv2d(256, 256, kernel_size=(7, 7), stride=(1, 1), padding=(6, 6), dilation=(2, 2), groups=256, bias=False)
                (dil_bn_k7_2): BatchNorm2d(256, eps=1e-05, momentum=0.1, affine=True, track_running_stats=True)
                (dil_conv_k3_3): Conv2d(256, 256, kernel_size=(3, 3), stride=(1, 1), padding=(3, 3), dilation=(3, 3), groups=256, bias=False)
                (dil_bn_k3_3): BatchNorm2d(256, eps=1e-05, momentum=0.1, affine=True, track_running_stats=True)
                (dil_conv_k3_4): Conv2d(256, 256, kernel_size=(3, 3), stride=(1, 1), padding=(4, 4), dilation=(4, 4), groups=256, bias=False)
                (dil_bn_k3_4): BatchNorm2d(256, eps=1e-05, momentum=0.1, affine=True, track_running_stats=True)
                (dil_conv_k3_5): Conv2d(256, 256, kernel_size=(3, 3), stride=(1, 1), padding=(5, 5), dilation=(5, 5), groups=256, bias=False)
                (dil_bn_k3_5): BatchNorm2d(256, eps=1e-05, momentum=0.1, affine=True, track_running_stats=True)
              )
              (norm): BatchNorm2d(256, eps=1e-05, momentum=0.1, affine=True, track_running_stats=True)
              (se): SEBlock(
                (down): Conv2d(256, 64, kernel_size=(1, 1), stride=(1, 1))
                (up): Conv2d(64, 256, kernel_size=(1, 1), stride=(1, 1))
                (nonlinear): ReLU(inplace=True)
              )
              (pwconv1): Sequential(
                (0): NCHWtoNHWC()
                (1): Linear(in_features=256, out_features=1024, bias=True)
              )
              (act): Sequential(
                (0): GELU(approximate='none')
                (1): GRNwithNHWC()
              )
              (pwconv2): Sequential(
                (0): Linear(in_features=1024, out_features=256, bias=False)
                (1): NHWCtoNCHW()
                (2): BatchNorm2d(256, eps=1e-05, momentum=0.1, affine=True, track_running_stats=True)
              )
              (drop_path): Identity()
            )
          )
          (3): Sequential(
            (0): UniRepLKNetBlock(
              (dwconv): DilatedReparamBlock(
                (lk_origin): Conv2d(512, 512, kernel_size=(13, 13), stride=(1, 1), padding=(6, 6), groups=512, bias=False)
                (origin_bn): BatchNorm2d(512, eps=1e-05, momentum=0.1, affine=True, track_running_stats=True)
                (dil_conv_k5_1): Conv2d(512, 512, kernel_size=(5, 5), stride=(1, 1), padding=(2, 2), groups=512, bias=False)
                (dil_bn_k5_1): BatchNorm2d(512, eps=1e-05, momentum=0.1, affine=True, track_running_stats=True)
                (dil_conv_k7_2): Conv2d(512, 512, kernel_size=(7, 7), stride=(1, 1), padding=(6, 6), dilation=(2, 2), groups=512, bias=False)
                (dil_bn_k7_2): BatchNorm2d(512, eps=1e-05, momentum=0.1, affine=True, track_running_stats=True)
                (dil_conv_k3_3): Conv2d(512, 512, kernel_size=(3, 3), stride=(1, 1), padding=(3, 3), dilation=(3, 3), groups=512, bias=False)
                (dil_bn_k3_3): BatchNorm2d(512, eps=1e-05, momentum=0.1, affine=True, track_running_stats=True)
                (dil_conv_k3_4): Conv2d(512, 512, kernel_size=(3, 3), stride=(1, 1), padding=(4, 4), dilation=(4, 4), groups=512, bias=False)
                (dil_bn_k3_4): BatchNorm2d(512, eps=1e-05, momentum=0.1, affine=True, track_running_stats=True)
                (dil_conv_k3_5): Conv2d(512, 512, kernel_size=(3, 3), stride=(1, 1), padding=(5, 5), dilation=(5, 5), groups=512, bias=False)
                (dil_bn_k3_5): BatchNorm2d(512, eps=1e-05, momentum=0.1, affine=True, track_running_stats=True)
              )
              (norm): BatchNorm2d(512, eps=1e-05, momentum=0.1, affine=True, track_running_stats=True)
              (se): SEBlock(
                (down): Conv2d(512, 128, kernel_size=(1, 1), stride=(1, 1))
                (up): Conv2d(128, 512, kernel_size=(1, 1), stride=(1, 1))
                (nonlinear): ReLU(inplace=True)
              )
              (pwconv1): Sequential(
                (0): NCHWtoNHWC()
                (1): Linear(in_features=512, out_features=2048, bias=True)
              )
              (act): Sequential(
                (0): GELU(approximate='none')
                (1): GRNwithNHWC()
              )
              (pwconv2): Sequential(
                (0): Linear(in_features=2048, out_features=512, bias=False)
                (1): NHWCtoNCHW()
                (2): BatchNorm2d(512, eps=1e-05, momentum=0.1, affine=True, track_running_stats=True)
              )
              (drop_path): Identity()
            )
            (1): UniRepLKNetBlock(
              (dwconv): DilatedReparamBlock(
                (lk_origin): Conv2d(512, 512, kernel_size=(13, 13), stride=(1, 1), padding=(6, 6), groups=512, bias=False)
                (origin_bn): BatchNorm2d(512, eps=1e-05, momentum=0.1, affine=True, track_running_stats=True)
                (dil_conv_k5_1): Conv2d(512, 512, kernel_size=(5, 5), stride=(1, 1), padding=(2, 2), groups=512, bias=False)
                (dil_bn_k5_1): BatchNorm2d(512, eps=1e-05, momentum=0.1, affine=True, track_running_stats=True)
                (dil_conv_k7_2): Conv2d(512, 512, kernel_size=(7, 7), stride=(1, 1), padding=(6, 6), dilation=(2, 2), groups=512, bias=False)
                (dil_bn_k7_2): BatchNorm2d(512, eps=1e-05, momentum=0.1, affine=True, track_running_stats=True)
                (dil_conv_k3_3): Conv2d(512, 512, kernel_size=(3, 3), stride=(1, 1), padding=(3, 3), dilation=(3, 3), groups=512, bias=False)
                (dil_bn_k3_3): BatchNorm2d(512, eps=1e-05, momentum=0.1, affine=True, track_running_stats=True)
                (dil_conv_k3_4): Conv2d(512, 512, kernel_size=(3, 3), stride=(1, 1), padding=(4, 4), dilation=(4, 4), groups=512, bias=False)
                (dil_bn_k3_4): BatchNorm2d(512, eps=1e-05, momentum=0.1, affine=True, track_running_stats=True)
                (dil_conv_k3_5): Conv2d(512, 512, kernel_size=(3, 3), stride=(1, 1), padding=(5, 5), dilation=(5, 5), groups=512, bias=False)
                (dil_bn_k3_5): BatchNorm2d(512, eps=1e-05, momentum=0.1, affine=True, track_running_stats=True)
              )
              (norm): BatchNorm2d(512, eps=1e-05, momentum=0.1, affine=True, track_running_stats=True)
              (se): SEBlock(
                (down): Conv2d(512, 128, kernel_size=(1, 1), stride=(1, 1))
                (up): Conv2d(128, 512, kernel_size=(1, 1), stride=(1, 1))
                (nonlinear): ReLU(inplace=True)
              )
              (pwconv1): Sequential(
                (0): NCHWtoNHWC()
                (1): Linear(in_features=512, out_features=2048, bias=True)
              )
              (act): Sequential(
                (0): GELU(approximate='none')
                (1): GRNwithNHWC()
              )
              (pwconv2): Sequential(
                (0): Linear(in_features=2048, out_features=512, bias=False)
                (1): NHWCtoNCHW()
                (2): BatchNorm2d(512, eps=1e-05, momentum=0.1, affine=True, track_running_stats=True)
              )
              (drop_path): Identity()
            )
          )
        )
        (norm): LayerNorm((512,), eps=1e-06, elementwise_affine=True)
        (head): Linear(in_features=512, out_features=1000, bias=True)
      )
      (proj): Identity()
      (wave_adapter): Sequential(
        (0): Conv1d(6, 64, kernel_size=(5,), stride=(1,), padding=(2,), bias=False)
        (1): BatchNorm1d(64, eps=1e-05, momentum=0.1, affine=True, track_running_stats=True)
        (2): GELU(approximate='none')
        (3): Conv1d(64, 64, kernel_size=(3,), stride=(1,), padding=(1,), bias=False)
        (4): BatchNorm1d(64, eps=1e-05, momentum=0.1, affine=True, track_running_stats=True)
        (5): GELU(approximate='none')
      )
      (wave_to_map): Conv1d(64, 224, kernel_size=(1,), stride=(1,))
    )
  )
  (classifier_head): ClassifierHead(
    (classifier): Sequential(
      (0): Linear(in_features=512, out_features=256, bias=True)
      (1): ReLU()
      (2): Dropout(p=0.1, inplace=False)
      (3): Linear(in_features=256, out_features=3, bias=True)
    )
  )
  (fusion): MultimodalFusion(
    (query): Linear(in_features=512, out_features=512, bias=True)
    (key): Linear(in_features=512, out_features=512, bias=True)
    (value): Linear(in_features=512, out_features=512, bias=True)
    (projections): ModuleList(
      (0-2): 3 x Linear(in_features=512, out_features=512, bias=True)
    )
    (output_projection): Linear(in_features=512, out_features=512, bias=True)
  )
  (stage_fusions): ModuleDict()
)
2026-04-24 10:50:15,466 - multimodal - INFO - 总参数数: 35,240,411
2026-04-24 10:50:15,466 - multimodal - INFO - 可训练参数数: 35,240,411
Train dataset size: 4961
Train loader size: 51
2026-04-24 10:50:16,374 - multimodal - INFO - TensorBoard配置: enabled=True, output_dir=output/fish_feeding_unireplknet_midfusion
2026-04-24 10:50:16,855 - multimodal - INFO - 正在初始化TensorBoard, experiment_name=fish_feeding_unireplknet_midfusion
…
